model/plant_model_quant.tflite (tflite, 572024 bytes, 106 tensors)

arith.constant f4 [16]
00000000: 890e 3f40 8aa1 8dc0 1cfb 5f40 b2e7 4e3e
00000010: 290f 8cc0 29f6 15c0 cb9a 3840 1419 4240
00000020: 7535 f4c0 3ebb 3ec0 3f95 26c1 1089 85c0
00000030: 2e71 44c0 a6e1 2d40 cf65 4240 82cd 4340
2.9852622 -4.425969 3.4997015 0.20205572 -4.3768506 -2.3431494 2.8844478 3.0327806
-7.6315255 -2.9801784 -10.411437 -4.1729813 -3.069408 2.7168975 3.037464 3.0594182

arith.constant1 f4 [16, 3, 3, 3]
00000000: 5a95 923e d329 1a3f 1f20 3f3e cb49 e43e
00000010: ecce 723f ffe0 763e 739f 0d3e ba8f cd3e
00000020: 93d4 ec3d 7fe3 a4bd e291 1abe 4988 073d
00000030: 4362 06be b4da 8ebe 4ab5 493d 7666 5cbd
00000040: 2985 8bbd 9933 0a3d a5c8 75bc 0047 01bd
00000050: 8ca7 e4bc 3de8 f7bc a2ca cebd 1dc2 0fbc
00000060: 1bfe 28bd 1152 e3bc cc67 213c 6715 1e40
00000070: 343b 763f be9d 273e 1f41 9f3f c459 fc3e
00000080: ab18 10bc c350 7bbf 27dd 2a3d 60ee 863f
00000090: 7234 973e 53ae 523e 0dc2 1a3e 1d14 0dbe
000000a0: fde0 0b3e 6005 223e 9690 cfbe ca64 bb3d
000000b0: 3961 b73e 628d 94bf a9bd d03e 9dfd 523f
000000c0: 4ca4 8abf a02e 213f f38c af3e 4e9a fd3d
000000d0: 02f2 1a3f 9291 2fbf e49e 4dbe e183 1bbe
000000e0: e8cb 4dbd 1fd1 6cbe ca37 9abe 4412 05be
000000f0: c33f 00bd 51b3 a0bd 201c b6bd 4193 c33e
00000100: 3b1d 583f 27dc 563e a319 213f 483f 963f
00000110: 0d89 833e 1abd 7c3e 1741 973e 275c cd3d
00000120: c967 55be c3cd 1ebf 2c62 9ebd 21d4 debe
00000130: 4b87 70bf d3a0 a3bb 2576 a8be 63a7 60be
00000140: b18a 543d fca4 421e d1a7 5f1d 0705 729e
00000150: 4e9f 741e d980 c51d dd6d 2b9e bab9 de1d
00000160: ba61 7f1c 9c2f 609e 0f20 7d1e 3cbd d91d
00000170: 9f64 3d9e d3fd 1c1e 9b6e 391d fb3a 9e9e
00000180: 180c f41d b9f0 ce1c 7531 6b9e 9aa5 4a1e
00000190: 5d88 de1d fd5f 8c9e 0746 941d 383e 031d
000001a0: f558 7b9e 346a 521b 951b 8e1d dc12 599e
000001b0: db26 92be 3101 14bf e366 223f bb26 b53d
000001c0: 083f e9bd 57d7 aebd 831a 233f 9ad5 a83e
000001d0: 81f6 63bf 7166 8d3e 0b14 51be 8890 f8bd
000001e0: 1bd7 403e 5ac5 72bd c3d9 f53d a8ef bf3f
000001f0: f57a 0a3f 0e16 d33e 3291 853e 167d 463d
00000200: bf12 b5be 483f 763e 7ce4 0e3e 1dba c1bd
00000210: 75d0 e13f a33f 873e f062 c83e 7007 091d
00000220: ee96 741d 9e62 a71c b96c 461d 9797 961d
00000230: ae56 e11c d0e0 689c e4b5 e71c e048 329b
00000240: 7985 851c 8f48 181d 1ece 091c d8dc 381d
00000250: fde6 831d 22c5 0b1d c2ca 921c f4b4 5b1d
00000260: 51da db1c 41ac 451c 58eb 321d 128b b71a
00000270: dbc5 261d 067a 881d a20e 351d c072 ac1c
00000280: ab0c 381d 93e7 781c 8a18 5ebd 3310 5ebd
00000290: 5b26 57bc b03b 2c3e f59a 963e feb7 ba3d
000002a0: 9348 09be 5322 32be de60 35bd cb6c 1dbe
000002b0: b38a 9fbe c39c c4bd c915 f93e def9 753f
000002c0: 7039 8b3e dd57 a7be 2de0 1cbf 9cf5 1fbe
000002d0: 2ccc f3bd ff6e 4fbe efdb 27bd cd0b c03e
000002e0: 8387 253f b244 5a3e 2dc0 85be f0ee bebe
000002f0: edbe cfbd aea4 e83d a4c3 6f3e b394 6c3d
00000300: 6555 f4bd 66b4 1fbe 757d b5bc fe7f 813a
00000310: ea8c 40bb 2d12 95bc 4f5d ab3e 0fbf 423f
00000320: f9d4 ef3d 265e abbe 1852 1ebf e5e3 ebbd
00000330: a35a 623c 0b70 8f3d f265 40bc eb59 8e3e
00000340: b91b ea3e d296 b93d 3f52 63be e6ac cebe
00000350: 8f8f cfbd 2dd4 e6ba 6435 963b cff7 88bc
00000360: f7bc b8bd da8f 64be ad57 d13e a554 913e
00000370: 3264 06bf 3d58 933e 837a d83e ec80 e9be
00000380: bc12 ec3c be5f a13e 6b06 c5be c8b1 013f
00000390: 58e2 acbe 105a 7ebe bc47 9e3d e989 89bf
000003a0: 3700 2ac0 d4db 5bbf 36d6 e43e c634 0fbf
000003b0: b4c0 1e3e 2b23 c3bc 3a6d 21be b34e 2cbe
000003c0: add8 27bf 5036 1ac0 6c59 30bf 5251 28be
000003d0: b841 a53e ed99 a3bd 527d 56bd bd11 a4be
000003e0: 3f9c 5dbe 0256 a6be a801 ae3d ab02 173c
000003f0: 7f86 26bf 9466 b1bf 8ed7 e3be bfd2 5cbf
0.2862957 0.6022007 0.18664597 0.4458755 0.9484699 0.24109267 0.13830356 0.40148717
0.11563983 -0.08051204 -0.15094712 0.033088956 -0.13123421 -0.27901232 0.049245156 -0.053808652
-0.06812508 0.033740614 -0.015001451 -0.03156185 -0.027911924 -0.030262107 -0.10097243 -0.008774308
-0.04125796 -0.027749093 0.009851407 2.4700563 0.96184087 0.16368768 1.2441748 0.49287236
-0.008794944 -0.9817011 0.041714814 1.0541496 0.295322 0.20574312 0.15113087 -0.13777204
0.13660045 0.15822363 -0.40539998 0.09150083 0.35816363 -1.1605647 0.407697 0.82418233
-1.083139 0.6296177 0.34287223 0.12382947 0.60525525 -0.685815 -0.20080143 -0.15187027
-0.05024329 -0.23126648 -0.3012069 -0.12995249 -0.031310808 -0.07846702 -0.08892083 0.38198283
0.844196 0.20982419 0.62929744 1.1738062 0.256905 0.24681512 0.29541847 0.10027342
-0.20840372 -0.6203272 -0.077335685 -0.43521217 -0.9395644 -0.004993537 -0.32902637 -0.21938853
0.05189008 1.03043925e-20 2.9600563e-21 -1.2812413e-20 1.2950196e-20 5.227869e-21 -9.075384e-21 5.8954947e-21
8.449873e-22 -1.1868307e-20 1.3400338e-20 5.7635085e-21 -1.0026385e-20 8.311061e-21 2.4541728e-21 -1.6753294e-20
6.4598767e-21 1.3694162e-21 -1.2451024e-20 1.07280366e-20 5.8903907e-21 -1.4862776e-20 3.924768e-21 1.7369872e-21
-1.3306225e-20 1.7405109e-22 3.7615606e-21 -1.1491784e-20 -0.2854527 -0.5781432 0.6343824 0.08845278
-0.113889754 -0.085371666 0.6371233 0.32975465 -0.8904801 0.2761722 -0.20417802 -0.12136942
0.18832056 -0.05927024 0.120044254 1.4995012 0.5409387 0.41227764 0.26087338 0.048459135
-0.35365865 0.24047577 0.13954347 -0.094593264 1.7641741 0.26415738 0.39137983 1.8135644e-21
3.237116e-21 1.1076625e-21 2.626129e-21 3.986141e-21 1.4911657e-21 -7.7052924e-22 1.5333315e-21 -1.4747362e-22
8.835704e-22 2.0154544e-21 4.55959e-22 2.446637e-21 3.4914248e-21 1.8498412e-21 9.713881e-22 2.907796e-21
1.4548638e-21 6.5404465e-22 2.3679774e-21 7.5911706e-23 2.2072206e-21 3.612507e-21 2.3962716e-21 1.1411667e-21
2.4358746e-21 8.235562e-22 -0.05422262 -0.054214668 -0.013131703 0.16819644 0.29415098 0.09117125
-0.13406591 -0.17395906 -0.044281833 -0.15373532 -0.31160507 -0.096002124 0.48649433 0.9608439
0.2719226 -0.32684222 -0.61279565 -0.15621036 -0.11904177 -0.20257185 -0.04098123 0.37509003
0.646599 0.21315268 -0.2612318 -0.3729167 -0.10143838 0.11359535 0.23414475 0.057758998
-0.1193035 -0.1559616 -0.02215455 0.0009880064 -0.0029380866 -0.018197143 0.33469626 0.7607278
0.11710543 -0.33470267 -0.61844015 -0.11518077 0.013815555 0.070037924 -0.011743056 0.27802977
0.45724276 0.0906197 -0.22199343 -0.40366286 -0.101348035 -0.0017610841 0.0045840014 -0.016719727
-0.09020417 -0.223205 0.40887204 0.2838489 -0.52496636 0.28778258 0.4228097 -0.45606172
0.028817527 0.31518358 -0.3848146 0.506619 -0.33766437 -0.24839044 0.07728526 -1.0745212
-2.656263 -0.85882306 0.4469468 -0.559399 0.15503198 -0.02382048 -0.15764323 -0.16826896
-0.65564996 -2.409565 -0.68886447 -0.16437271 0.32276702 -0.079883434 -0.05236561 -0.32044783
-0.21641634 -0.32487494 0.0849641 0.009216945 -0.65048975 -1.3859429 -0.44500393 -0.86259073

arith.constant2 f4 [20]
00000000: 015f 59bb a312 f2bc 5842 0dbd 6b36 493c
00000010: 386b b63d 922c 9e3b 579c 1abc 661b 71bc
00000020: 9d01 bebc 4d27 7d3d f67e eb3b a893 ec3c
00000030: c1a3 7abd 4ab5 933c 4951 45bc fa63 53bc
00000040: c4f5 00bc deee 073c 58b0 eabc cdb7 81bc
-0.00331682 -0.029549902 -0.0344871 0.012281041 0.08907169 0.0048270905 -0.009436688 -0.014716005
-0.023194129 0.06180506 0.007186766 0.028879002 -0.061191324 0.018030781 -0.012043306 -0.012902254
-0.007871095 0.0082966965 -0.02864854 -0.015834713

arith.constant4 f4 [8, 1, 1, 16]
00000000: 6ce9 87be 39a4 47be 4e01 ab3d 55da 871d
00000010: f360 8fbe 9f47 121e 2bee 95bf 0ff2 8041
00000020: 4844 71be cf45 733e 7b51 a2bd 96cf a7be
00000030: 966f 093d b8eb 253c 2157 623e 6969 16bf
00000040: b420 e5c0 1eab 14be 772c 88bf 708a 5a9d
00000050: 788e 1bc0 82ba 031c bbe6 243e 029f cfbf
00000060: b610 813f 4519 3d40 a4cb f83e 4f51 06bf
00000070: 214a 38c0 23a3 053e a397 233e 6071 1cc1
00000080: d57e e33f d897 623f eaa0 dcbe 64f1 071e
00000090: 3051 d03f 6542 819c 2c09 8abf 2918 d03e
000000a0: 39d2 0140 f11f 7c3f 5ee6 cb3f 517e cf3f
000000b0: 5ff6 ee3f 3cde 3341 5f34 50bf 186f 50bf
000000c0: 339c a2bf 3d72 6f3f 310a c5c0 7483 401c
000000d0: 585d 233f 91fb 8f9d 0d1a f0be 1458 ea3e
000000e0: a712 abbe 4131 a9bf ab68 fa3e 8ba7 ed3f
000000f0: 9199 5dbe a1dc 2a3f fafa 5c40 3096 7d40
00000100: 819d 4dc0 bce1 4d3f 6cf6 1fbf 9b1c be1d
00000110: 2425 b43f 1fd9 659d b2ff ecc0 f0a6 833e
00000120: b3a6 db3f fcf8 2ebf 89bd 79bf 29d5 86bf
00000130: 9e14 91bf 7a41 f5bf 7c8b 90c0 b46a eb3f
00000140: 334a 9ac0 24d1 8a3f 5f07 a440 bdb2 459d
00000150: 27a1 c83f 7177 201d 1e76 9dbe 2e8c e23e
00000160: bab0 1ebe ae0b d8bf 318f 6a3e 7816 0f40
00000170: 47ed e93d e8d4 a13f 43b9 3440 f9da fcbe
00000180: f35d 953f 46df 7940 58d2 5dbf 764f 849c
00000190: b018 3b40 1829 c99d 5152 083f 5884 9b3e
000001a0: 2032 5740 6ad8 6a3f d7e7 0bc0 23a8 1140
000001b0: 1711 2b40 e79f 2fc1 72c4 10bf db56 debf
000001c0: ae1f 1940 197e 1fbf d9ce 20bc ef0a a89d
000001d0: 646d c7bf 1820 dc1d 481c e1c0 2856 bc3e
000001e0: 5b16 e4bf 7449 7a3f 4c37 203f 938b 4b3f
000001f0: 7dc4 7e3f 1e48 b4be 7c33 8b40 8dfe 15c0
-0.26545274 -0.1949624 0.08349858 3.5959952e-21 -0.28003654 7.7439865e-21 -1.1713308 16.118193
-0.23561203 0.23757099 -0.079256974 -0.32775563 0.033553682 0.0101270005 0.2210355 -0.58754593
-7.160242 -0.14518401 -1.063857 -2.892363e-21 -2.4305706 4.358532e-22 0.16103642 -1.62204
1.0083225 2.9546673 0.48592865 -0.5246782 -2.8795245 0.13050513 0.15975814 -9.777679
1.7773081 0.88512945 -0.43091518 7.196759e-21 1.6274776 -8.553667e-22 -1.0784049 0.40643433
2.028456 0.9848624 1.5929677 1.6210424 1.8668936 11.241756 -0.8132991 -0.81419516
-1.2703918 0.9353369 -6.157494 6.369737e-22 0.63814306 -3.81119e-21 -0.46894875 0.45770323
-0.33412668 -1.3218156 0.4890798 1.8566755 -0.21640612 0.66742903 3.4528184 3.9622917
-3.2127383 0.8042257 -0.62485385 5.032216e-21 1.4073834 -3.0420147e-21 -7.406213 0.257133
1.7160248 -0.6834867 -0.9755483 -1.0533801 -1.1334417 -1.9160607 -4.517027 1.8391938
-4.8215575 1.0845075 5.1259 -2.6165138e-21 1.567418 2.1237573e-21 -0.3075418 0.44247574
-0.15497103 -1.6878564 0.22906186 2.2357464 0.1142221 1.2643099 2.8238075 -0.49385813
1.1669296 3.9042525 -0.86649084 -8.755567e-22 2.9233818 -5.3246747e-21 0.53250605 0.30374408
3.3624344 0.9173647 -2.1860254 2.2758873 2.672918 -10.976539 -0.5654975 -1.7370256
2.3925586 -0.62301785 -0.009814941 -4.4480535e-21 -1.5580258 5.82667e-21 -7.0347023 0.36784482
-1.7819322 0.9776833 0.62584376 0.7950985 0.9951857 -0.3521127 4.3500347 -2.3436615

arith.constant5 f4 [48, 1, 1, 8]
00000000: 2714 47bb 7957 e8bb 7a39 243d e8b6 69bd
00000010: fcc4 22bd eca6 4fbd 20b3 0b3d bde1 343d
00000020: ef52 613c 33b5 9a3d dda1 e3bc 3444 3abd
00000030: 5a2e af3c 7631 9dbd ed9e 1ebd 097c 76bc
00000040: 6ad9 123c 81a8 573c 868d 4d3d 0be0 74ba
00000050: 4fed dabc 7245 64bc 7ede d0bd 3b63 063c
00000060: 5c94 c93a 0a35 8e3d e615 533c b976 2d3d
00000070: 7d1f 7dbc b750 18bd 904e 023d 7193 e73c
00000080: 4321 063c 3ff1 b93b db48 183d 7fe9 0abd
00000090: 6e8d 4fbd 1008 60bd 529a 433d 6c53 353d
000000a0: c38f 473c d69e 043c ab36 923c abf4 ea3d
000000b0: 6e86 6bbb e60b 0fbe 4825 8c3c cbb1 07bc
000000c0: 9526 193c f0e6 0f3d df68 af3d acc9 533d
000000d0: beea dfbd acaa 0f3c 4a01 8abe 148a 973d
000000e0: 95bb ac38 82cf ae3c fc64 833d 9851 503c
000000f0: b894 3abb 672f f5bb 4c07 36bd ce27 20bc
00000100: e09e f83a 89b7 dd3c 026f 9dbc 7caf 06be
00000110: 6ae3 813b f9ff 093e d67b a0bb 5e14 44bb
00000120: 0832 793d 777c 39bb 8de5 d6bc b0ea fe39
00000130: 778f 5fbe f932 26bc 93c2 913c fb59 66be
00000140: 0fff 24bb 1731 1cb9 6071 293c 6623 62bc
00000150: b917 3bbc 3d5f 6fbc 0a16 433c 6a6d 573c
00000160: 9bd0 b83b 9cd8 fa3c 0980 8d3b 10e5 a4bd
00000170: 0867 c63d 84eb f1bd c401 aebd 1691 babd
00000180: 051e cf3a 771f 42bd 4db4 0d3d 2f82 26bd
00000190: 5c74 5d3b c42d 493c 27b6 43bd 0c01 88bc
000001a0: 172e da3c 4ad7 48bd 775f f33c a51d 23bd
000001b0: 677c 7b3d 7ee7 623c 300d 083c 411c eb3c
000001c0: 55fa 49bc 1a03 333b d74e 003d 6028 f8bc
000001d0: 7ccb e1bc 836a 4fbd 8f10 c63c ec73 3c3d
000001e0: 7ec5 9fba fbaa 30bd 57c7 6e3c 980e 0a3e
000001f0: 65fe 24ba 19a5 0abe 1ffc 973a 631e 08bc
00000200: 5e18 2cb9 ec5c 673b fdcf 353d 47c6 4dbd
00000210: 27a6 30bd a81d 44bd 7f84 243d 73dc 393d
00000220: b916 6abc cbd5 d73c 2d58 5b3b ccdd a13d
00000230: 894b 36bd 4b52 4b3d 83d7 ea3c 6936 2e3d
00000240: aca3 74bc 8c2b 393d f7d1 3a3e 0dee d0bc
00000250: 8da4 14bd 691c a0bc a323 223e a25c 033d
00000260: 3993 1f3f 851a 1dbd a893 713c ef3f 2a3d
00000270: 38fe 33be ef14 e2bc ba0e 1a3c 4ad9 43be
00000280: 94ea 793b c310 35bb 43b1 153d e770 5fbd
00000290: 9988 2cbd 646b 47bd ecdf f73c 9d3d 303d
000002a0: 4543 b93b 8d8f 603d 1466 123e 9e21 683e
000002b0: 2cf8 6abd d320 193e 38f6 e2bc 34e2 493d
000002c0: 1c5d 043c 5eb7 ac3d 0f15 613c 6fe5 cd3b
000002d0: af9f 02bc dfd8 e3bb bf18 443c 6652 393c
000002e0: 5ed6 c33b 3d86 223d d9e3 cdbd f1ab f13c
000002f0: 89b2 b83d f7d4 733d cbd6 acbd 09ae eabd
00000300: a480 f63a 103d b13b f1cb af3d e67b 31bc
00000310: b4dc 563c f0f2 32bc 3e12 6cbd d557 edbc
00000320: c8ea 8fbb d75b 86bd ceba 053b 2dbb 5b3b
00000330: fd9d 12bc dec8 80bc e588 093c 519b d83b
00000340: 5144 e7bb 86fc f6bd b2ae c4bc 865c babc
00000350: 2c63 61bc 8648 4639 4b30 a2bc 3b0f 81bb
00000360: 78f9 873c 3e15 ba3d c8ea 89bb 4c6e 88bd
00000370: 1bd7 683c f2a8 b93d 84c0 143c 6f07 97bc
00000380: 7089 883a a332 3a3c 3a7e 13bd 8164 4c3d
00000390: 8b71 2a3d eac0 4e3d 04ae 1ebd 69c3 3bbd
000003a0: 06a4 43bc 7b8c aebd 3577 863a c281 51bd
000003b0: 32a4 8cbd d906 0d3d 879f 213c 8a47 14be
000003c0: 8a72 f83e 1878 2dbc ecca 0bbe 3f8e bfbc
000003d0: 530f f63d d9a0 c73d 8613 89bc 9d25 a13e
000003e0: b8e8 9bbe fcfa 1a3d d079 ff3c 8220 453a
000003f0: d2af dfbc fa2b b6bc ffa3 f2bc cff4 3bbd
-0.0030377002 -0.0070905057 0.040093876 -0.0570592 -0.03973864 -0.0506963 0.034106374 0.044160593
0.013752683 0.07554092 -0.027787143 -0.0454752 0.021384407 -0.076754496 -0.038725782 -0.015044221
0.008962968 0.013162733 0.050183795 -0.00093412463 -0.026724486 -0.013932573 -0.10198687 0.008202369
0.0015379298 0.0694371 0.012883639 0.04234955 -0.015449402 -0.03718635 0.031813204 0.028268548
0.008186641 0.0056745107 0.037178855 -0.033914085 -0.050671987 -0.05469519 0.047754593 0.04426901
0.012180272 0.00809451 0.017848333 0.11472448 -0.003593828 -0.13969383 0.01710762 -0.008282135
0.009347578 0.03513235 0.085649244 0.051706 -0.109334454 0.008768719 -0.26954108 0.07399383
8.236539e-05 0.021339182 0.064157456 0.012714766 -0.002846999 -0.0074824574 -0.044440553 -0.009775115
0.0018968247 0.027065055 -0.019217972 -0.1315288 0.0039638774 0.13476552 -0.004897575 -0.0029919366
0.06083873 -0.0028302947 -0.026232505 0.0004862151 -0.21832071 -0.010143989 0.017792976 -0.22495262
-0.002517644 -0.00014895607 0.010341972 -0.013802385 -0.01141923 -0.014610109 0.01190711 0.013148645
0.005640102 0.030620866 0.0043182415 -0.08051503 0.096876204 -0.11812499 -0.084964305 -0.09109704
0.0015801793 -0.04739329 0.034595776 -0.040651496 0.003379128 0.012278978 -0.047781136 -0.016602062
0.026633305 -0.04903344 0.029708607 -0.039823193 0.061397936 0.013849137 0.008303925 0.028699996
-0.01232775 0.002731508 0.031325188 -0.03029269 -0.02756285 -0.050638687 0.024177818 0.04600899
-0.0012189595 -0.04313181 0.0145738935 0.1348213 -0.0006294011 -0.13539542 0.0011595524 -0.008308026
-0.00016412276 0.0035303188 0.044387806 -0.05023792 -0.043127205 -0.047879845 0.04016542 0.045376252
-0.014287644 0.026347062 0.0033469305 0.079036325 -0.04450563 0.049639028 0.028667217 0.04253236
-0.014931601 0.045207545 0.18244158 -0.025504136 -0.03628974 -0.019544797 0.15833907 0.032070763
0.6233402 -0.03835537 0.014744677 0.041564878 -0.17577446 -0.027597873 0.009402925 -0.19125858
0.0038134204 -0.00276284 0.036546003 -0.05455103 -0.042122457 -0.0486864 0.030258141 0.04302751
0.005653771 0.0548244 0.14296752 0.22669074 -0.05736558 0.14953928 -0.027705297 0.04928799
0.00807884 0.08433412 0.013737931 0.006283454 -0.007972642 -0.0069533433 0.011968791 0.011311149
0.0059764823 0.0396788 -0.10053224 0.029500933 0.09018428 0.05952927 -0.08439406 -0.11458976
0.0018806648 0.0054088905 0.085838206 -0.010832762 0.013114143 -0.010922179 -0.057634585 -0.028972546
-0.004392002 -0.06560486 0.0020405534 0.0033528314 -0.0089488 -0.015720781 0.008394455 0.006610312
-0.0070577045 -0.12059884 -0.024009082 -0.022749197 -0.013756555 0.00018909769 -0.019798419 -0.003938583
0.016598448 0.09086083 -0.0042088963 -0.066616625 0.014211441 0.09065427 0.009079102 -0.018436162
0.0010416936 0.011364612 -0.03600905 0.049900535 0.04161219 0.050476946 -0.038740173 -0.045840655
-0.011940962 -0.08522888 0.0010258915 -0.051149137 -0.06867255 0.03443036 0.009864694 -0.14480415
0.48524886 -0.010587715 -0.13651627 -0.023383258 0.120146416 0.09747476 -0.016732942 0.3147401
-0.30450988 0.037837014 0.031186014 0.00075197977 -0.027305517 -0.022237767 -0.029619215 -0.045887765

arith.constant6 f4 [8, 1, 1, 48]
00000000: e659 183f bfd5 f63f c090 9abe 1be6 fcbd
00000010: 70c2 66be 1e22 9fbd 5bff c13f 8c6a 0fc0
00000020: fb81 27bd 08b2 123d c07f 7a39 7b36 cd3d
00000030: 362b 0cc0 1cd5 823a d68c 7ac0 eae4 553e
00000040: 7e15 fe3f 828d 2d3e 6a06 1740 f70e fd3d
00000050: d6b3 ab3f ad86 923e c53a d0be e35f eebf
00000060: b12c 2cbe 6c3f 5fbd 0928 5cbd ec44 0ebe
00000070: 6233 03be 04d2 83be ba8d 033e 6f5e aa3e
00000080: e849 853e 1e42 34bf 96ab 80be 6437 e33e
00000090: 8b24 11be ee53 b13d 93a6 25bf b2f2 9199
000000a0: b324 adbf 493d d3bf 028a f51c ad48 e33e
000000b0: 82f7 813c a2da bdbd 3169 77be 2cf6 0740
000000c0: e22f 8dbf 16b1 903e 5e15 4d3f e8ae b9bd
000000d0: 15f1 c93e 6f44 e43c dba9 78bf a7ea a03f
000000e0: 23f1 b43c 7f71 b4bc 8540 f2b8 b8b2 f13e
000000f0: 65b9 903f a65e 2a3d 18be a6c0 87ca 8bbd
00000100: c80c 84bf 8ae1 913e f24b 2d40 fa4c dcbd
00000110: 650a 05c0 6e70 30bf 525a de3e f85d 60bf
00000120: 3f16 1d3e 5f2b 073e 75fd 923d e727 2c3e
00000130: adf4 803f a122 2c3d 427f dbbc 87ea 32be
00000140: 4956 70be 9a36 febd e501 923e 7f80 af3e
00000150: 265c 993c 74cc 2bbe 03e6 993f 9063 131c
00000160: 5a21 1840 e373 683f aa33 6f9c c885 1ebe
00000170: c084 95ba 45cf bf3d 8c7c 92be f87e a1bf
00000180: 67ab 0340 851e 6c3f e542 8f3f d457 11c0
00000190: c80f 65c0 1aea c73f a043 e4be ea91 8f3e
000001a0: 32b7 ca3f e6af 1e3d c568 3b39 cc6e 1340
000001b0: cc9e 84be 1b73 b53f 1119 383f da97 15c0
000001c0: 832e 5abd 4448 26c0 9c7b cd3e e3ff acbf
000001d0: 7848 503d 0920 fa3e 2f7e 5abf 781c ce3e
000001e0: dd0c 6c3e 2c74 3cc0 0e3a e4bf 6ea3 c93f
000001f0: 4367 16c0 a69b 9cbf 2c52 77bf c48d 6ebe
00000200: 10fe 9dbe 8003 a7be 3378 ae3e 1c5c 41be
00000210: cee2 0740 d38e 7cbf 30ca 6640 9c59 f39b
00000220: b46f b3be ddbc cabe dfcd 171d 495a 8bbf
00000230: 4a71 c13f 5cda be3f f15d 26bf 40ca f8be
00000240: af72 b1c0 4be5 7c3f 5ee8 fe3e cad3 16bf
00000250: 4b1f c03e 5df8 1d3f 96c3 b03e 5c67 91bf
00000260: 21fa 9a3e cc3a a1bc 3416 8ab9 1c27 883f
00000270: dba2 b6bf 3827 d53e 7dc5 313f a418 19c0
00000280: c7a5 693e 1bcd afbf b1c5 4ebe 12d3 30bf
00000290: 1f5c 273d 0ac1 5d3e 346d 083f b948 05bd
000002a0: da03 db3c e86f 97be 9771 b8be f34b 123f
000002b0: 1743 5a40 737d c6be 1fed 8cbe 8aaf bb3d
000002c0: e380 66be 3327 f3be d5fe 3a3d e94b e53d
000002d0: d887 f83f f0e5 11bf 1023 953f 4f3d 959c
000002e0: 23fe 2ebe 54dd 10be cffd 839c 21f4 5dbf
000002f0: e730 4c3e 655c de3e b41a 54be a882 5c3f
00000300: b83c f93e 3192 323e 6577 b6bf 71e9 87bf
00000310: 187c e7bf 25ff c23e 4996 e83f 38e1 fcbf
00000320: 7e8c c33e 3fdf 973b dbfc 3d39 7304 dabf
00000330: dbc8 02c0 3348 de3e bd07 f33d 5a20 02c0
00000340: 8ef8 e3bf d916 ce3f f790 f4be a001 02bf
00000350: 43ca ddbf 54c1 5f3e 46af bfbe c85b 7cbf
00000360: aa88 0bbf 9349 bebf f35f 58bf e742 ee3e
00000370: 9b13 8bbf 76d2 2ebe e480 90be 2768 babe
00000380: 0500 21bf 4d13 193e 7551 f8be 5889 59be
00000390: b20d da3f d215 febe 846b 68c0 9aaa 859c
000003a0: f2b5 ed3f 7592 9f3f 8bd2 399c 328f 47bf
000003b0: bbc1 cd3e f15e fa3e 24f5 943e acd4 1c40
000003c0: e509 183e f1e4 92bd 88fd c33e 4d33 003f
000003d0: 7ac2 183f 4d87 14bf ae6f 8b3c afd1 183f
000003e0: ff26 c0be 162a 5f40 8081 3639 fc5c 523e
000003f0: c522 8ebd e73d 07bf f097 be3e 49e2 df3e
0.59512174 1.928398 -0.3018856 -0.12348577 -0.2253511 -0.07770179 1.5156053 -2.240878
-0.040895443 0.035814315 0.00023889448 0.10020157 -2.1901374 0.0009981724 -3.914846 0.20888105
1.9850309 0.16948512 2.3597665 0.1235637 1.3414257 0.28618374 -0.40669838 -1.8623012
-0.16813923 -0.054503843 -0.053749118 -0.13893479 -0.1281257 -0.25746167 0.12847033 0.33275172
0.26032948 -0.70413387 -0.2513091 0.44378197 -0.14174096 0.086585864 -0.647073 -1.5090672e-23
-1.3526825 -1.6503078 1.6248414e-21 0.44391385 0.015865091 -0.092702165 -0.24161221 2.1244001
-1.1030238 0.28260106 0.8011073 -0.09066564 0.39441743 0.027864663 -0.9713418 1.257161
0.02208764 -0.022026775 -0.00011551477 0.47206664 1.1306578 0.04159417 -5.210705 -0.068257384
-1.03164 0.28492385 2.7077603 -0.107568696 -2.0787594 -0.68921554 0.43428284 -0.87643385
0.15340517 0.13200139 0.07177249 0.16812097 1.0074669 0.042025212 -0.02679408 -0.17472278
-0.23470415 -0.12412758 0.2851707 0.34277722 0.018720698 -0.16777211 1.2023319 4.87669e-22
2.3770356 0.9080183 -7.914524e-22 -0.15480721 -0.001140736 0.093657054 -0.28610647 -1.2616873
2.0573366 0.9223407 1.119229 -2.2709856 -3.5790882 1.5618317 -0.44582844 0.2804101
1.5837157 0.03874197 0.0001787274 2.3036375 -0.25902402 1.4175752 0.7191325 -2.3373933
-0.053267013 -2.5981607 0.4013337 -1.351559 0.05085036 0.48852566 -0.8534879 0.40256095
0.23051782 -2.9445906 -1.7830217 1.5753 -2.3500526 -1.2235 -0.9660976 -0.23296267
-0.30857897 -0.32619858 0.3407608 -0.18882793 2.123218 -0.9865543 3.6060905 -4.0258886e-22
-0.3504616 -0.39597216 2.0091116e-21 -1.0886928 1.5112698 1.4910388 -0.64987093 -0.48591805
-5.5452495 0.98787373 0.49786657 -0.58916914 0.37523875 0.617071 0.3452422 -1.1359668
0.30268958 -0.019681357 -0.00026337954 1.0636935 -1.426845 0.41631484 0.6944197 -2.392129
0.22817145 -1.3734468 -0.20192601 -0.6907207 0.040859338 0.2165567 0.5329163 -0.032540057
0.026735235 -0.29577565 -0.36024162 0.5714714 3.4103448 -0.38767585 -0.2752466 0.09164341
-0.22510104 -0.47490844 0.045653183 0.11196119 1.9416456 -0.5699148 1.1651325 -9.875841e-22
-0.17089133 -0.1414693 -8.734461e-22 -0.86700636 0.1994053 0.43429866 -0.20713311 0.86136866
0.48679137 0.1743858 -1.4255186 -1.0618116 -1.8084745 0.38085285 1.8170863 -1.9756231
0.38193125 0.0046347673 0.0001811864 -1.7032608 -2.0435092 0.4341446 0.1186671 -2.0332246
-1.7810228 1.6100723 -0.4776685 -0.5078373 -1.732735 0.21851093 -0.3743841 -0.9857755
-0.5450541 -1.4866203 -0.84521407 0.46535417 -1.0865358 -0.17072472 -0.28223336 -0.36407587
-0.62890655 0.14948769 -0.48499647 -0.21243799 1.703543 -0.49626023 -3.6315622 -8.845301e-22
1.857115 1.246657 -6.1483486e-22 -0.77952874 0.40186867 0.4890056 0.29093277 2.4504805
0.14847524 -0.07172573 0.38279366 0.5007828 0.5967175 -0.5801895 0.017021026 0.5969495
-0.37529752 3.4869437 0.00017405115 0.20543283 -0.069402255 -0.5282883 0.37225294 0.4372733

arith.constant7 f4 [48, 1, 1, 8]
00000000: 8e20 fbbc 0b87 cb3c f397 353c 84d0 7c3e
00000010: a239 143d d5aa 5d3c 97d8 0ebe 447f ccbc
00000020: e903 cabc 1263 6abd 6dab aabc ab61 6c3d
00000030: 3cfa e73b fd56 1d3d 815f 6ebd 9a3a 84bd
00000040: a7d0 bdbd e00e 0f3e a25e 28be 7f4e 543f
00000050: a22a 2dbc 74f9 443e 247d 64be dbff 0c3e
00000060: 9c37 56be ccdb 92be 2cfa f63c 7989 a9bc
00000070: f084 053c a168 67bc bed9 313d 2780 933b
00000080: 5a33 503e 2325 06be 90ec 523d 8fde 283d
00000090: b61e 16be 304c af3e bf2a 94bd da75 2d3e
000000a0: 96ee 9fbd 7aa6 13bc 31e8 813c 504d 91bd
000000b0: e363 6ebd 40b5 b23c c4e8 82bd a3d5 813c
000000c0: c7f6 e53b 8a88 e0ba 4294 acbb ac7f f6bc
000000d0: 0bc5 aabc 1e2b 563e a889 583d 7fae 2f3d
000000e0: 9516 19bd fa59 8f3d 117e aa3a dc12 babc
000000f0: ab7f 6cbd 3d30 013c bfe3 3dbd c095 dc3c
00000100: 74de 563a 6dd9 96bb 6487 a0bd 2fa4 5e3d
00000110: 24ed 1abd b311 193d 400e 8c3c 21a3 42bd
00000120: c976 17bc 4e71 9fbb ec2e 98bc 2ef7 97bc
00000130: c44a febc 3848 a6bd a1ca 2f3d 8f10 163d
00000140: aa4b ecbb 918c 233c dcea 9fbd 47b8 013d
00000150: 6bb1 33bd 2118 b23b b5d6 363d 0514 203c
00000160: 0939 efbd f6ef eb3d 159b 2a3d caca ed3b
00000170: 19bb 1f3e e4cd b93c 5b36 673c adeb 54bd
00000180: e378 cf3c 7b27 fa3d 2408 16be 5bc1 f23e
00000190: dc8b c4bc bb96 ac3c 1271 c1bd ae44 393b
000001a0: f757 133c c90b 293d b1e0 f5bc cf8c 36bd
000001b0: bfd3 d63c 18b8 bc3e c679 a0bd cb2e 0fbe
000001c0: e329 893d 4bf0 c6bd 37f3 fdbc 0c52 92bb
000001d0: ab61 bfbd 55c6 03be 8edc 8fbd d962 6abd
000001e0: 043a 543d fd06 92bd 8269 b73e 4e8e 87be
000001f0: 4da4 583e d442 313d c844 4dbe 0bd5 02be
00000200: 012c c63d 0e84 5ebd 4ce0 40bc 14b4 743d
00000210: 0d90 d53d 9274 0ebd bde0 ab3d ea93 f5bc
00000220: 3d23 8d3c 787a 39bb aaf3 83bc 0441 2cbc
00000230: f4c1 f1bc 01f7 01be 4e6d ac3c 7ff6 d83c
00000240: 5df1 00be 769e 1f3e ae9d 6c3c c9d8 6abd
00000250: 71bf 22be 2779 8f3c 7c1b 05be 5165 583d
00000260: 1f26 5dbd 8e7a 053d d125 97bd 9775 193e
00000270: 9cd1 d7bc b7cf ccbc be6a 423d 5542 9b3d
00000280: 654d 24be 74ee 23be 5b75 a83c 9b2d 173c
00000290: 7f44 c63b 5074 833a d309 ba3c 2c23 9abc
000002a0: f2df b9bb 2e6a 3fbc 83ff 8ebc b6ba a93b
000002b0: a8a3 c53a fd29 11be a6dd 96bc 9a5f 3fbd
000002c0: b4ea 3a3d 4f0c 2f3d cdd0 3abb 845d a639
000002d0: 078b 50bc a317 e33a bac0 3abc 22a0 033c
000002e0: d6fa 01bd d5e8 b1bc a7f4 99be ca0f 02be
000002f0: 7df7 2abe 6e33 06bd 0915 223e 201a 29be
00000300: 45d8 9e3b 1c29 b33a be01 34bd cc0c ffbc
00000310: 3e23 b5bc 1754 8d3c 0a00 b83d 7e38 873d
00000320: dfd3 f83d 345c 013e 7876 60bc 5ee8 da38
00000330: 0a8a d8bc 4170 68bb 5978 f4bc 9c58 8d3c
00000340: 5c7c 1e3d 7324 553d c783 80bc 445a 093d
00000350: 706d 183d 5778 71b8 8eda 453c 7f32 b23b
00000360: b351 1a3f 2c78 08bf dc13 d5bd 1464 573e
00000370: c668 31bf a234 2cbd d5cc 95be 41da 6b3e
00000380: 0433 4ebe 2497 86be 922b 6c3d 95a0 103d
00000390: 12e9 2b3d e623 473d 227e 02b9 fe48 a2bc
000003a0: 63fd 713d 5cea 363e 1edc df3c f220 7dbd
000003b0: cc6e 803d 456b c7bc abf9 c63c b08c 9fbc
000003c0: 1ad0 063e ee84 b0bd 5154 d4ba f791 72bf
000003d0: 6da3 c0bd 7692 a63c 3199 f43e 0f86 d5bd
000003e0: 3744 313b 4970 2bbc f1f8 efbc 90fe 24bc
000003f0: e6db ba3c 1345 333b e2a2 c2bc d41c 853c
-0.030655172 0.024844667 0.011083591 0.24688917 0.036187775 0.013529499 -0.1394981 -0.024963029
-0.024660068 -0.057223387 -0.020833695 0.05771033 0.007079391 0.038413037 -0.05819655 -0.0645649
-0.09268313 0.13970518 -0.1644235 0.82932276 -0.0105692465 0.19235784 -0.22313362 0.13769476
-0.20919651 -0.28683317 0.030148588 -0.020695435 0.008149371 -0.014124067 0.043420546 0.004501361
0.20332089 -0.13100104 0.051495135 0.041227873 -0.14660153 0.34237814 -0.07234716 0.16939488
-0.078091785 -0.009011859 0.015857788 -0.07094824 -0.05820073 0.021814942 -0.06392053 0.01584894
0.0070179435 -0.0017130536 -0.005266697 -0.030090176 -0.02084591 0.20914885 0.052865654 0.04289102
-0.03737505 0.069995835 0.0013007541 -0.022714071 -0.05773894 0.007885036 -0.046359774 0.026926875
0.00081966 -0.004603556 -0.07838324 0.054355796 -0.03782381 0.037370395 0.017096639 -0.047518853
-0.009244629 -0.004865802 -0.018577062 -0.018550482 -0.03104151 -0.081192434 0.04291785 0.036636885
-0.0072111683 0.009982244 -0.07808468 0.03166988 -0.04387037 0.0054350053 0.044638354 0.009770398
-0.116808005 0.11520378 0.041651804 0.0072568404 0.15598716 0.022681184 0.01411208 -0.05198257
0.025326198 0.122145616 -0.14651543 0.47413144 -0.023992471 0.021067968 -0.094453946 0.0028269696
0.00899314 0.041271005 -0.030014368 -0.04456788 0.026224015 0.36859202 -0.078357264 -0.13982694
0.066974424 -0.09713801 -0.030999763 -0.004465347 -0.093448006 -0.12868626 -0.07024489 -0.057223175
0.05181314 -0.07130239 0.35822684 -0.26475757 0.21156426 0.043276623 -0.20045769 -0.12776582
0.09676362 -0.054325156 -0.011772227 0.05974205 0.10427866 -0.03477914 0.08392475 -0.029977757
0.017228717 -0.0028301757 -0.016107399 -0.010513548 -0.02951143 -0.12691881 0.021048214 0.026484726
-0.12592073 0.15587792 0.014441891 -0.05733565 -0.15893342 0.017513825 -0.12998766 0.052830998
-0.053991433 0.03258758 -0.0738026 0.14986263 -0.026345067 -0.02500139 0.04746508 0.07581011
-0.16045149 -0.16008931 0.020563772 0.009227182 0.006050646 0.0010029171 0.022709763 -0.0188156
-0.0056724483 -0.01168303 -0.017455822 0.0051797284 0.0015078681 -0.14176174 -0.018416237 -0.046722032
0.045633987 0.042736348 -0.0028505803 0.00031731662 -0.012728459 0.001732577 -0.011398489 0.008033784
-0.031733356 -0.021717468 -0.30069467 -0.12701336 -0.16695972 -0.03276389 0.15828337 -0.16513872
0.0048475587 0.0013668868 -0.043946974 -0.031134032 -0.022111531 0.017252011 0.089843825 0.06602572
0.12149786 0.12632829 -0.01370012 0.00010438332 -0.02643301 -0.00354673 -0.029842542 0.017254166
0.038692817 0.052036714 -0.015687836 0.03353335 0.037213743 -5.7570953e-05 0.012076033 0.0054381485
0.60280913 -0.5330837 -0.104041785 0.2103427 -0.69300497 -0.042042382 -0.29257837 0.23032476
-0.20136648 -0.26287186 0.05765874 0.035309393 0.04197032 0.04861822 -0.00012444754 -0.019810196
0.05907954 0.17862839 0.02732664 -0.061798997 0.06271133 -0.024343142 0.024288973 -0.019476265
0.13165322 -0.08619104 -0.0016199445 -0.94753975 -0.09406171 0.02033351 0.47773126 -0.1042596
0.0027048716 -0.010463783 -0.02929351 -0.010070458 0.022809934 0.0027354404 -0.02375931 0.016249098

arith.constant8 f4 [8, 1, 1, 48]
00000000: d382 a1bf a000 113f 100f c0be 28c0 09bf
00000010: af09 a23f d096 9cbe f6b5 633e 5b85 413e
00000020: b30e ff3e bb7d 2b3e 5c01 7e3e 91c6 8abf
00000030: 0152 d53f 84bd 673d f22c e7bf fdcc 0b3f
00000040: 5a3d 3e3f 3839 11be e8b0 68c0 1abc 71bf
00000050: 46f2 713f 2cea 5bbd 1a4d a6be 2dc5 98be
00000060: 891a f9bd 9a3f abbf fcc6 1d40 deb6 c4be
00000070: 4560 21c0 8ec1 1d3f fbc7 7b3e 1932 a53d
00000080: ac86 553f c359 07c0 0249 d9be 8550 943e
00000090: 6666 61bf e932 65bf 3f91 95bf 64cd f23b
000000a0: eae5 cf3d a2cb 55bf 43fa bfbf 17dc 3e40
000000b0: 75a2 aa3c ee47 9f3f 01b9 98be b1a2 c7be
000000c0: c9c5 13bf ba45 603e 77a5 fc3e 5fd8 37be
000000d0: b289 78bf 7fd0 81be 11c4 923d 794b e93e
000000e0: b8a2 a7bd 660c e53e 37fa 15be 57bf c13f
000000f0: 0e97 cb3f b171 74be 4c3a 7b3f 54b0 c6bd
00000100: 8eab aebe b323 7bbe c302 3040 3e4e ddbf
00000110: 0e62 d53f 5ff8 12be 0655 58c0 6792 d43d
00000120: 9d25 acbd 6541 f63c cf2d bc3f 4792 213f
00000130: 9936 2dc0 95e3 8b3f 8e22 6dbd 4ac3 753e
00000140: da30 c63b 4b22 d33f 8eae 6d3e 0a6d 00bf
00000150: da09 3d3e c1aa 0e3f 0299 bc3f e86b 87bd
00000160: 8f10 353e 00eb 3ebe cff5 48bf 7c77 9340
00000170: 8224 49be e28f 4e3f dab0 9a3e 02e0 8dbe
00000180: 3b71 2dbf de1b 34bf 1895 cdbf db37 a43e
00000190: 7fee 0a3f 0104 d8bf 3dc6 64be a572 8ebf
000001a0: de58 fa3f 4e7c c03f c004 1440 2cdf 0bbf
000001b0: 4c97 a13e 42c3 3fbe 4846 223f b8bc dc3e
000001c0: 0ff2 2cbe 1ec0 43bf 3570 db3f 5587 c4be
000001d0: 7c74 f63c 819e e3bf fb44 3e3e cee0 1540
000001e0: 88df 003e 98ba 76bb 3344 94bd 1238 973d
000001f0: 5b97 84bf 6f41 20bf 3aaa 95bf 9b87 7240
00000200: 1c0c 403f ba93 9f3e 6ac5 ac3f 3dd0 11be
00000210: 4c3d b8be 997a 3d3f 10c9 9dbc f7b4 d63f
00000220: 6da5 b8bf 57cf 80be 7a69 f8bd 35d6 13c0
00000230: e95a 09c0 40f3 193f 20cf 633e 35e2 ed3f
00000240: 867b 3940 4099 9fbf 3219 e13f bab6 80bf
00000250: 888d 9c3e 62d4 a9be 78cf c0ba d3cf 8bbf
00000260: 347b ecbf 8da7 8b3f bc88 a2be 0541 e3be
00000270: d82f 45be e426 85be 625e 773d 4f29 fcbf
00000280: 1b8c 8e3e 3a19 54bf 4bcb 9abf e3b2 8fbe
00000290: 1b12 853e 9289 1b3f e2b6 813e 7628 a13f
000002a0: d5ac ce3e 2c7c bdbe 809a ad3d a857 73bf
000002b0: 951a 50be 8877 bc3e e46c 92bf 9010 703f
000002c0: 91be 323f bef9 d7be e939 613f a7b0 023f
000002d0: 885f 1b40 7040 8d3f 7070 ba3d 69d3 7e3f
000002e0: 4a4e 8abf ffb4 1b40 2b33 1cbf 8d23 023f
000002f0: 0c2b cdbe 223f f2bf 66e3 ebbd 6519 a73f
00000300: 807c 593c d7c2 d2be 93d4 05bf c273 cfbf
00000310: be95 94bf 844b febe 8af5 d8bd 7a44 9bbf
00000320: 3e8f a93f cd16 e43f d0ed 893f 0022 9e3f
00000330: f262 c7bd b613 e6be 0675 b53f 7b62 8c3d
00000340: 31cf 1d3f b4e0 b1be d4b8 93c0 c250 8ebe
00000350: 8b39 1b3f a821 6abf 7079 38bf 2de5 193f
00000360: 039d ea3c ccab 4d3f 0677 a73f 8feb 083f
00000370: 6871 8abe fdf6 92be 0201 10bf 97e6 f4bf
00000380: 501a 863d fbcc 0840 01f7 4f3e 1600 ae3f
00000390: b776 333e a13b 263f b4df b13f 3129 9d3f
000003a0: d77e 8cbf 7096 22bb 11ca 243f bdb0 ccbf
000003b0: 5cb0 bcbe 6228 33bd 39af a7bf 5670 a93f
000003c0: 0435 083e 665e 83bf cce8 c43c 7e08 e2bf
000003d0: d0da c53f 1698 ef3e 1a41 7ebf e3c7 4c3f
000003e0: e93a a5bd 9ca6 8640 4c32 08be 061c 05bf
000003f0: 5ceb 5a3e 5f85 0ec0 8c43 893f f1f4 9c3d
-1.2618049 0.5664158 -0.37511492 -0.5380883 1.2659205 -0.3058381 0.22237381 0.18898527
0.49815902 0.16747181 0.24805206 -1.0841848 1.6665651 0.05657722 -1.8060591 0.5460966
0.74312365 -0.14181983 -3.6357975 -0.94427645 0.94510305 -0.05369012 -0.324807 -0.29837933
-0.12163264 -1.3378785 2.46527 -0.38420767 -2.5215008 0.61623466 0.24588005 0.08066196
0.8340862 -2.1148536 -0.42438513 0.28967682 -0.8804687 -0.8953081 -1.168495 0.0074097384
0.101512745 -0.83513844 -1.4998249 2.9821832 0.020829419 1.2443826 -0.29828647 -0.3899131
-0.5772367 0.21901599 0.4934499 -0.17953633 -0.97085106 -0.25354382 0.07166303 0.45565394
-0.08185333 0.44736022 -0.1464623 1.5136517 1.5905473 -0.23871495 0.9813583 -0.09701601
-0.3411526 -0.24525337 2.7501686 -1.7289503 1.6670549 -0.14352559 -3.3801894 0.103794865
-0.08405612 0.03006048 1.470148 0.63113827 -2.7064574 1.0928828 -0.057894282 0.24000278
0.006048304 1.649484 0.23211119 -0.5016638 0.1846079 0.557293 1.4734194 -0.06612378
0.17682098 -0.18644333 -0.78500074 4.6083355 -0.19642833 0.806883 0.30213052 -0.27709967
-0.677509 -0.7035502 -1.6061125 0.32073864 0.54270166 -1.6876222 -0.22341247 -1.1128737
1.955837 1.5037935 2.31279 -0.5463741 0.31560743 -0.18726829 0.6338849 0.4311273
-0.16889213 -0.7646502 1.7143618 -0.383845 0.030084841 -1.7782747 0.18581001 2.341846
0.1258527 -0.003764784 -0.072395705 0.073837414 -1.035869 -0.62599844 -1.1692574 3.7895267
0.7501848 0.31167394 1.3497746 -0.14239593 -0.35984266 0.74015194 -0.019260913 1.6773976
-1.4425484 -0.25158188 -0.12129493 -2.3099492 -2.1461737 0.60136795 0.2224698 1.8584658
2.8981643 -1.2468643 1.7585814 -1.0055764 0.3057673 -0.33169848 -0.0014710268 -1.0922798
-1.8475099 1.0910507 -0.31744945 -0.44385543 -0.19256532 -0.26006234 0.060392745 -1.9700106
0.27841267 -0.8285099 -1.209329 -0.28066167 0.25990376 0.6075679 0.2533484 1.2590473
0.40366235 -0.37008798 0.08476734 -0.9505563 -0.2032264 0.36809945 -1.1439481 0.9377527
0.6982203 -0.42182726 0.8797899 0.510508 2.4277058 1.103529 0.09103477 0.99541336
-1.0805142 2.4329221 -0.61015576 0.50835496 -0.40071905 -1.8925517 -0.11517982 1.3054625
0.013274312 -0.41164276 -0.5227749 -1.6207201 -1.1608198 -0.4966699 -0.10593708 -1.2130272
1.3246839 1.7819458 1.07757 1.2354126 -0.09735669 -0.44936913 1.4176338 0.06854721
0.61644274 -0.34741747 -4.616312 -0.27795988 0.6063468 -0.91457605 -0.720603 0.6011532
0.028639322 0.80340266 1.3083198 0.53484434 -0.27039647 -0.28704062 -0.5625154 -1.913287
0.065479875 2.137511 0.20309068 1.3593776 0.17525755 0.64934736 1.3896394 1.2278196
-1.0976208 -0.0024808906 0.6437083 -1.5991436 -0.36853302 -0.043739684 -1.3100349 1.3237407
0.13301474 -1.0263183 0.024036787 -1.7658842 1.5457401 0.4679572 -0.9931809 0.799925
-0.08067877 4.207838 -0.13300437 -0.51995885 0.21378845 -2.2268903 1.0723739 0.07663906

arith.constant9 f4 [48, 1, 1, 8]
00000000: 6cde 5cbc 4a89 023d 611a 2c3d 3daf 8bbd
00000010: 1903 5a3d 6f1d 7d3b f7e3 433c 1d32 74bc
00000020: 58c0 523c c164 d03c 59a0 9ebd 1705 dbbc
00000030: b91d 2abd ff16 b53b 0a50 903d 6888 ec3c
00000040: 5cfd 76bb 22d6 f93c 18e0 1f3d 8b96 ca3a
00000050: 566f 27bd daf1 71bc a9a3 b33c 0736 943c
00000060: 1759 c23c 4b51 703d bfe8 14bb 7c3e 403c
00000070: ffb1 223d 3d7b 3b3a e41b f73b 3b7d 8cbc
00000080: 4f58 0fbb cf1e 233c 16c7 20be aed2 93bd
00000090: 804b 99bd cfb2 4c3d 63c0 2e3e ad54 c23d
000000a0: e5cb 513c 2220 5fbd 0939 fcbc bddc ce3d
000000b0: 05af 6cbd 6bd5 3f3d c852 4bbd 6f6d 853c
000000c0: 4d23 353d 8860 7ebd 27a5 d8bb 941d 663c
000000d0: 5edc 843d 07e5 77bb 844c 3f3d c758 45bc
000000e0: 203c e6bc c80f 2c3b f6f0 07bd b5da af3d
000000f0: e15c b4bc 3b28 a4b9 3d9b 513b eb3c 733c
00000100: c617 4f3c 0f05 553c 5cd4 6ebc 44ce ecb9
00000110: 7d9a 95bc 7f71 cfbd c02f 00bc fbbc 58bc
00000120: 40e8 c23c 5ef7 5abb dc3a 13bd 557f 373c
00000130: c448 71bc e847 86be 823d c5bd b7f0 f7bd
00000140: 170f c2bc f413 dabc 570b 6f3b e03d 0cba
00000150: efeb c33b 3b13 1c3c d35a f23b c35d 293a
00000160: 96c0 8e3c c495 ce3c bef6 72bb ebb0 92ba
00000170: 27e5 27ba 4d34 0fbb 761d 49ba 5153 34ba
00000180: 5646 d6bb 940d 83bc 5e7d a9ba ccd4 923b
00000190: e1c9 e4b9 feec 10bd 9101 1d3c 5735 ecbb
000001a0: cd5b c9bd ef59 353d f826 f9bc 6d4c ba3d
000001b0: ec2a 673d 4b7c 9c3c 39d0 ab3a 98d0 3fbc
000001c0: c63b 4739 3e57 3bbb aff0 913d 4564 f63c
000001d0: 1f22 0c3d b955 39bd ea5e 8ebd ffc1 a7bc
000001e0: b4d0 1d3e c74c 433d aa99 61bd 3e86 343d
000001f0: cdab 2a3e 6026 ef3c 89b8 e5bc 14fd 023d
00000200: 537c eabc d853 b4bc 89af d03d 6c16 0bbe
00000210: 2c2b 27bc dcd0 013b f686 0bba 7ac4 b4bc
00000220: 6ecd 213d 95cc 303d 39f0 23bc 8be2 4b3b
00000230: 4e69 59bc 7d24 87bc fc0f e6bb 2e03 04b9
00000240: 3c3d d83b ce1e dd3d 720d 92bc e552 87bb
00000250: d24e d5bc d9c3 953c b38d 75bd 8f51 c73c
00000260: e6dc 68bb 42c6 cfbd fd52 eb3c c056 3a3c
00000270: 4cfc d43c 8272 44bc f253 793d 8783 afbc
00000280: 89f1 393d 08e6 3cbd 3de1 953b 606d de3c
00000290: aa6f 42bd 6320 dd3c 029f ddbc 728e 033d
000002a0: 1d8b 133d 70fe 623d 2dbf d6bc 75d6 283c
000002b0: 95ad d5bc 0cc0 34bd e3b9 7a3c 9a41 8a3c
000002c0: 97d0 183c 1fa0 40bb b41d 393c ec2a bc3b
000002d0: cb5d dc3b 76ba 8bbd 224e 3cbd 02d5 48bd
000002e0: 3d32 0dbc d7f2 083c 4f84 1d3c c4b8 9c3b
000002f0: 3d40 bf3b 9242 b03d 9347 c83a be33 973c
00000300: 2788 b0bb 5032 45bc 0a28 45bd 9032 a3bc
00000310: 2eb3 35bd 26b7 f4bd 3438 773d be1d 153d
00000320: bda2 f9bc 491c 5bbc 8958 e23c ba25 ebbb
00000330: ef8e aa3c d505 5a3e 5cbb c53c 8c78 f03c
00000340: fcce 5ebd ad16 6b3c 505f 853b 1111 e7bc
00000350: 81b0 44bd e71b 94ba d2a8 09bd 3595 553c
00000360: 3be8 1dbe 2055 37bd 0caf 46be 9e1d c73e
00000370: 5bb6 92bd e335 cf3c 997b 893d a1a3 963d
00000380: 1dfd ca3c 1458 2c3d 80f5 96bc ac71 d73c
00000390: 4b02 03bb 17ce 913b 26eb ddba badd 863b
000003a0: 172c 6bbc 4032 4cbc 02ac 5bbd 281e 1dbd
000003b0: 774e 2d3d bd43 a4b9 028f 78bd 8fae 623d
000003c0: d62c d7bc 0d57 4ebd 273c ee3b 576b f6bb
000003d0: 32bb 963c bd96 313d 8ade e03c 981a a23b
000003e0: a4a7 9c3c 0d03 993c d8de 95bd 2fbe dbbc
000003f0: 87ed 2dbd 828d fcbb c525 a43d cec6 983c
-0.013480764 0.03186921 0.042017344 -0.068205334 0.05322561 0.003862228 0.0119562065 -0.014904526
0.012863241 0.025438668 -0.07745428 -0.026735825 -0.041532252 0.005526423 0.07046516 0.028873637
-0.0037687635 0.030497614 0.03903207 0.0015456242 -0.040877663 -0.014767135 0.021928625 0.018092168
0.023724122 0.058671277 -0.0022721735 0.011733647 0.03972053 0.0007151848 0.0075411666 -0.017149558
-0.0021872704 0.009956076 -0.15700945 -0.07217918 -0.074851036 0.049975213 0.17065577 0.09488807
0.01280496 -0.054474004 -0.030788915 0.10100696 -0.0577841 0.04683439 -0.049639493 0.016287534
0.04422312 -0.062103778 -0.0066114846 0.014045138 0.06487344 -0.003782572 0.04670383 -0.012045092
-0.028104842 0.0026254524 -0.033188783 0.08586637 -0.022016944 -0.00031310492 0.0031983398 0.014846067
0.012639945 0.013001694 -0.014576998 -0.00045167108 -0.018262142 -0.101290695 -0.0078238845 -0.01322865
0.023792386 -0.0033411602 -0.035944805 0.011199792 -0.014726821 -0.26226735 -0.09630872 -0.121064596
-0.023688836 -0.026620843 0.0036475265 -0.0005349796 0.005979053 0.009526069 0.007396081 0.000646081
0.017425817 0.025217898 -0.003707334 -0.0011191642 -0.0006404691 -0.0021851242 -0.00076719315 -0.000687887
-0.0065391464 -0.015997685 -0.0012931039 0.004480934 -0.0004363796 -0.035382263 0.009582893 -0.007208507
-0.09831963 0.04427522 -0.03041409 0.09096608 0.056437418 0.019102236 0.001310832 -0.0117074475
0.00019000386 -0.0028585936 0.07125985 0.03007711 0.034212228 -0.045247767 -0.06951697 -0.020478247
0.15411645 0.047680642 -0.055078186 0.044073336 0.166671 0.029193103 -0.028042095 0.031979635
-0.028623736 -0.022012636 0.10189731 -0.13582772 -0.010203164 0.0019808328 -0.000532254 -0.022066344
0.039502554 0.043163855 -0.010006004 0.0031110372 -0.0132697355 -0.016496891 -0.0070209485 -0.00012589686
0.0065990966 0.10796891 -0.017828677 -0.004129755 -0.026038561 0.018281864 -0.059949588 0.024330882
-0.0035532056 -0.101452366 0.028726095 0.011373222 0.02599921 -0.011990191 0.060871072 -0.021425022
0.04539636 -0.046117812 0.0045739696 0.027151763 -0.047469772 0.026992982 -0.02705336 0.03211827
0.03602134 0.05541843 -0.026214207 0.010305037 -0.026083747 -0.044128463 0.015303108 0.016876984
0.009327075 -0.0029392315 0.011298586 0.0057424214 0.006725048 -0.06822674 -0.04597295 -0.049031265
-0.008617935 0.008358679 0.009614064 0.004782768 0.005836515 0.08606447 0.001528012 0.01845729
-0.0053873244 -0.012035921 -0.048133887 -0.019921571 -0.044360332 -0.11948995 0.060356334 0.036405317
-0.030473107 -0.013373443 0.027630107 -0.007176128 0.02082011 0.21291287 0.024137191 0.029354356
-0.054396614 0.014348668 0.0040702 -0.02820638 -0.04801989 -0.001129982 -0.033608265 0.013036062
-0.1542062 -0.044758916 -0.19402713 0.38889784 -0.07163688 0.02529425 0.067130275 0.073554285
0.024778897 0.042076185 -0.01842761 0.02629932 -0.001999038 0.0044496167 -0.0016931042 0.0041157873
-0.014353774 -0.012463152 -0.053630836 -0.038358837 0.042311158 -0.00031330987 -0.060683258 0.055342253
-0.026266497 -0.050375987 0.0072703543 -0.00752012 0.018399809 0.043356646 0.027449865 0.004947018
0.019122906 0.018678213 -0.07317895 -0.026824085 -0.04246285 -0.0077072987 0.080150165 0.018649485

arith.constant10 f4 [16, 1, 1, 48]
00000000: 5075 4bbe f468 8f3f c0ae 033f 2c2f bfbf
00000010: 30c1 19be 3cd3 8abf 526d 933f 282c 2340
00000020: 93c2 883f ae44 1b3f 8cf4 c2be 567d 213f
00000030: 2fcc aebf 1615 8ebf bd36 47ba c70f 493f
00000040: 1da9 b83d 1938 803d 2ca8 3a3d 476a d9be
00000050: d232 993e 644f 63bf 2492 993f 4fec ec3f
00000060: 774d c9bf df28 84be 472c 163f eaf2 6fbf
00000070: 6a5a c23e d93b 8d3e 5cdb e1bf 503d f43f
00000080: 70e6 a73f d1fd a9bf f0cb 83be 06dc fb3c
00000090: 4df3 9dbf 1e0c cbbf 8fd7 4f3d 47ad 0240
000000a0: 89eb 6bbf ca35 063f d081 f4bf 331a 0d3f
000000b0: 8619 bfbe a52a 9ebf f846 743f c651 5b3f
000000c0: 7db2 393d 5501 98be 63fa 11bf 6355 a3bd
000000d0: dfe5 663e 38fd 243e b1ea 6340 dd29 05bd
000000e0: 63ae c6bd 854d a63d d455 71be f002 773e
000000f0: 4ffc a8bd 285f 8bbd 90eb ef3c e89f a0bf
00000100: 5db2 de3e bdb5 6bbe eaed 70bf 8305 85bc
00000110: 950b a8be 6d69 0bbe 62c8 83bd e7bb 84bd
00000120: c612 af3d ccd8 ef3e 05ed 4440 c718 6e3c
00000130: c68d b73e ae24 27c0 9080 8dbe f823 d3be
00000140: cbae 5ebe c5e5 aebe e97c 803f 9072 fa3f
00000150: 6a71 b13e 85f9 50bd 293f f3bf 1a53 e9bc
00000160: 4e28 b93e a508 a93d 0306 fabd bb33 1ebe
00000170: 9784 043d 8c8c edbe 367a 343e 2dfa 0140
00000180: 2e13 36be ac50 003e e61e 623e 3df5 103c
00000190: 8219 05c0 1241 54bc b95b e8bd 2154 2cbf
000001a0: 8b4d 9740 0ea1 7c3f 9402 c2be 0a9d be3d
000001b0: 7cfb 9a3c 2705 3bbe 192c 1ec0 17f3 09be
000001c0: 4340 16be 0f8f b6be 1765 87be 0d3e 04be
000001d0: 24b0 6cbf 71b9 fd3d 955d efbe 1dc4 0d3e
000001e0: 0ff0 08bf dedd 543f e9ef a9be 9831 873d
000001f0: 964a 023d 9cbd a8bf 46b3 b5bd 049d 95bd
00000200: 2b77 1c3e 8e54 5940 4a25 0dbf bda0 30bf
00000210: 9f82 a6be 7c2e a33d 9baf 1cbe dd18 333e
00000220: 4188 523b 401e 44bf 2ef4 173e 6eb5 80bc
00000230: a044 04be 1c41 063f 92ff bf3d bc17 23bf
00000240: ee05 823f 883f 073f 64b6 7ec0 060c 013f
00000250: 8ed3 01bf e6ad aabe 5882 a7be 5288 24bf
00000260: 58c3 3fbf 9b45 4d3f a386 3e3d 8ecc 013f
00000270: 42bd a83e 9206 00be ed16 2cbf 44a2 1fbd
00000280: 62d9 bcbd b43b 29ba ddf5 0fc0 3194 38c0
00000290: a4dc 993e 36c5 933e 7d14 743b ceec 623e
000002a0: 1b9d ef3e 2517 83be df76 9bbf 30b1 dfbd
000002b0: 17f9 923e 31fb 883d 6654 0c3f d066 0a3f
000002c0: c729 c8be 8066 56bc edcc 3940 7520 febd
000002d0: dcce 113f 22df f53e 693e 203f 4d25 cd3e
000002e0: 7548 8a3e 6153 973e 7685 31be 4357 82bd
000002f0: 068e 99be e77b a63e 75fc 8e3e 244e 20bf
00000300: 2814 22bf 6fcf 5e3f be2d 8b3f 9a1a 0d40
00000310: df25 473f 40ef 30bf 8738 1b3d 75f8 72bf
00000320: 1d74 15bf 0a3f 08bd 2395 ab3d 1ed2 1bc0
00000330: f043 fc3f 90a3 20bf 7ec8 d7bf 6c15 b03e
00000340: 9c8b 49bf d562 c1be c5e7 873f bbdd db3e
00000350: d7d6 9e3f 18c3 4cc0 f79b 853d 8466 3dbf
00000360: b788 4cbf 1d3f 5dbe d89f 073f 595e a73c
00000370: 03b8 d9bf bdc4 ecbd 4190 cb3f 80e6 883f
00000380: 4ffe 8c40 2ba6 88bf bc51 2f3f d63f 373e
00000390: a4ec e93d b95e 0840 d076 a7bf 199b 2fbf
000003a0: 4049 e73f 7e27 c13f 6f43 283f 1277 33be
000003b0: 8d23 2cbe f19b f23e 8d49 debf 77d9 623f
000003c0: 7100 3dbf 1eea 6d3e 98b4 6c3f 7213 21be
000003d0: 0f56 a3bf d991 c23c 9494 543e b4e9 efbf
000003e0: c1df 03bf 6716 edbe 9fa8 91bf 932b a2be
000003f0: 95b8 26be 9a00 073e ef6c 3b3c 6b12 983f
-0.1986897 1.1203904 0.5143852 -1.4936271 -0.15015101 -1.0845714 1.1517737 2.54957
1.0684379 0.6065167 -0.380772 0.6308187 -1.3656062 -1.1100185 -0.0007599404 0.785397
0.09016631 0.062607 0.045570537 -0.42463896 0.29921585 -0.88793015 1.1997724 1.8509616
-1.5726765 -0.25812432 0.5866131 -0.9373003 0.37959605 0.27584723 -1.7645068 1.9081211
1.3117199 -1.3280584 -0.2574153 0.030744564 -1.2339875 -1.5863073 0.050742682 2.041826
-0.92156273 0.52425826 -1.9102116 0.551181 -0.3732416 -1.2356764 0.9542079 0.8567165
0.045336235 -0.29688516 -0.57022685 -0.079752706 0.22548626 0.1611222 3.5611994 -0.032510627
-0.097012304 0.081202544 -0.23567897 0.24122214 -0.08251249 -0.06805259 0.02928713 -1.25488
0.43495455 -0.23018546 -0.9411303 -0.01623798 -0.32821336 -0.13614435 -0.06434704 -0.06481152
0.085485026 0.4684509 3.0769665 0.014532275 0.35850352 -2.6116138 -0.27637148 -0.4123838
-0.21746366 -0.34159675 1.003812 1.9566212 0.3465684 -0.05101921 -1.900365 -0.028482009
0.36163563 0.08253602 -0.12208178 -0.15449421 0.03235301 -0.4639629 0.17624745 2.0308945
-0.17780754 0.12530774 0.220821 0.008847532 -2.0796819 -0.012954967 -0.1134562 -0.6731587
4.7282157 0.9868325 -0.37892592 0.093072966 0.018918745 -0.18263684 -2.4714415 -0.13471638
-0.14672951 -0.3565602 -0.26444313 -0.12914295 -0.9245627 0.12388886 -0.46751085 0.13844343
-0.534913 0.8315104 -0.3319085 0.06601256 0.031809412 -1.3182864 -0.08872084 -0.07305339
0.15279834 3.3957858 -0.55135024 -0.6899527 -0.3252153 0.079678506 -0.15301363 0.17489953
0.003212467 -0.7660866 0.14839241 -0.015711512 -0.12916803 0.524431 0.09374918 -0.6370809
1.015806 0.52831316 -3.9798822 0.5040897 -0.5071343 -0.333358 -0.32716632 -0.6427051
-0.74907446 0.80184335 0.04651512 0.5070275 0.32956892 -0.12502506 -0.6722248 -0.038973108
-0.0922115 -0.0006455735 -2.2493813 -2.884045 0.30051148 0.28861398 0.0037243657 0.22160646
0.4679955 -0.25603595 -1.2145652 -0.10922468 0.28705665 0.06688536 0.5481628 0.5406313
-0.39094374 -0.013085961 2.9031327 -0.124085344 0.5695627 0.480218 0.6259523 0.4006752
0.27008405 0.295558 -0.17336068 -0.063643 -0.29991168 0.32516405 0.27926984 -0.62619233
-0.63312006 0.8703527 1.0873334 2.2047486 0.7779216 -0.69115067 0.037895706 -0.94910365
-0.583803 -0.033263244 0.08378055 -2.4346995 1.9708233 -0.62749577 -1.685806 0.34391344
-0.7872865 -0.37770715 1.0617605 0.42942604 1.2409314 -3.1994076 0.065238886 -0.7398455
-0.7989611 -0.21606107 0.5297828 0.02043073 -1.7009281 -0.11560962 1.5903398 1.0695343
4.4060435 -1.067571 0.6848409 0.17895445 0.11422089 2.1307814 -1.3083134 -0.68596035
1.8069229 1.5090177 0.65727895 -0.1752589 -0.16810437 0.473846 -1.7366196 0.88613075
-0.738288 0.2323384 0.92463064 -0.15730074 -1.2760638 0.023751186 0.20759803 -1.8743196
-0.51513296 -0.46306154 -1.1379584 -0.3167387 -0.1628135 0.13183823 0.011439546 1.1880621
